src/classify/model/model20.npz (npz, 3102 bytes, 8 tensors)

weight_h_1 f8 [8, 4]
0	0x3fefef295c338adc	0.9979445267493605
1	0x3fe2899b185889c2	0.5792975879197046
2	0x3fec281159551c0d	0.8798910851263614
3	0x3feb5541877148c1	0.8541572232591294
4	0x3fd367388c8bc386	0.30317510342779774
5	0x3fe54c51468399b4	0.6655660989024939
6	0x3ff37f8a69e249ae	1.2186378608790664
7	0x3fe193e3be60a4ed	0.5493029325781699
8	0x4007a9e7ddac8538	2.9579617803834957
9	0x3ff79af7a82583f6	1.4753338402008445
10	0x4008401d6f00fba8	3.031306140153408
11	0x3ff35e0ea1ab4a2d	1.2104631724547616
12	0x3fc1ce5bf9c23778	0.13911008544203773
13	0x3fe9c5d7d06194db	0.8054007596917033
14	0x3fc9b3017b093118	0.20077532298672263
15	0x3fec0c28a76679b7	0.8764842290436751
16	0x3ff243334aef31b5	1.141406338417352
17	0x3fe6ef5864e72b4f	0.7167169543039139
18	0x3fdaf8c0af1c1a78	0.4214326582008776
19	0x3fda1d4700d040de	0.4080369480079876
20	0x400551888c0b4705	2.664811224073562
21	0x400414f6914e3e12	2.510235915375014
22	0x40011f314e32b712	2.1402307614542986
23	0x4003175537ec7327	2.386393010047317
24	0x3fedf1fc5c8732fe	0.9357892806234245
25	0x3fd42055d3c64c28	0.3144735878096889
26	0x3fe8302dc417aa71	0.7558811979227597
27	0x3fce47a6d2240758	0.23656163464334656
28	0x3fcf3e9ecc252aa4	0.24409851997400722
29	0x3f93ea5e6bff7ba0	0.019448733655618278
30	0x3fe6ba9167d6c879	0.7102744129281425
31	0x3fcc0e4fbd3406a8	0.21918675173224256

bias_h_1 f8 [4]
0	0x3fee7a5bbe1cabbb	0.9524363244175825
1	0x3fd9e83d12a00028	0.40479971712921037
2	0xc01282aaad3fdc69	-4.627604205153241
3	0xbfd1e4e657e5a102	-0.27959593375864256

weight_h_2 f8 [4, 4]
0	0xc00291fbd268d770	-2.321281093430052
1	0x3fc93b47ca44557f	0.1971215951568119
2	0x3fd241a283379df6	0.2852560311716553
3	0x400d981f2875abb3	3.699278179255509
4	0xbff823fed3ee1163	-1.5087879446519643
5	0x3fee443e152e2087	0.9458303846049753
6	0x3fe9ad78518f1d50	0.8024255364370365
7	0x400b73c2c819efb9	3.431523860255734
8	0xbfe8302db98c268a	-0.7558811782812012
9	0x401517e36aa83fa0	5.273328463095737
10	0x4009435b42c4e1e4	3.157888909943937
11	0x4001cbab60c513ab	2.224447971357639
12	0xbffb7dd4a3cc7128	-1.7182203672774197
13	0x3ffa60936922ce24	1.648578081786476
14	0x3ff26941750acb48	1.1506971904716057
15	0x4006d47047da6baa	2.8537297833949724

bias_h_2 f8 [4]
0	0x3ffe3e273ad0870b	1.8901741311496518
1	0xc013bd7c54a12591	-4.935044596038453
2	0xc00a9f7930da9936	-3.327867871924492
3	0xc008a594cfa21551	-3.0808502408350837

weight_h_3 f8 [4, 4]
0	0xbffab4fdd95383f7	-1.6691874017053558
1	0xbff3a89ef47d76e1	-1.228667216338572
2	0xc005670f09cfeef2	-2.6753216520863754
3	0x400e37ad6be54135	3.777186243947791
4	0x40177ebebd0cb780	5.873774484540149
5	0x401177387f81d477	4.366426460551444
6	0x400678ec58004bcf	2.8090445399370547
7	0xbfed021561aecfaf	-0.9065043361538211
8	0x40090342750f6e46	3.1265916009267896
9	0x40044d24f3fff613	2.5376681387413185
10	0x3ffee265b96ec29c	1.9302727931464352
11	0xbff1e37f83ce5319	-1.1180415295286308
12	0x3fe23826a98e631b	0.5693543731350447
13	0x3ff46fbd2b203eab	1.2772800144775072
14	0x401851331f60eb9f	6.079296579638053
15	0xc00fd19b3376e0a2	-3.977346803727486

bias_h_3 f8 [4]
0	0xc013c209d2a83dc1	-4.93949059631217
1	0xc012159911092e31	-4.521091715035753
2	0xbfff42fb88a873d5	-1.9538531625942046
3	0x3fd013e226bf0040	0.2512135866527423

weight_h_o f8 [4, 3]
0	0xc0142d414c33eba3	-5.044194403332685
1	0x4021ad0f076761cf	8.838005286569482
2	0xc0098029733b5558	-3.1875790598375424
3	0xc0002a2be5578b58	-2.0205915372220424
4	0x401e3eec11a9581d	7.561447406731557
5	0xc0101ee04dd4ddec	-4.030152526967395
6	0x401972f819cd052d	6.362274554384652
7	0x400495a55ef75333	2.573069326327095
8	0xc01d7b37c3d39f97	-7.370329913894145
9	0xc00a4f2001382deb	-3.2886352629918654
10	0xbffb7fb8794eea76	-1.7186817873577218
11	0x401ac045bc4b9c8e	6.6877660199308036

bias_h_o f8 [3]
0	0x3ffc631f491dcb71	1.7741997581585702
1	0xc01864f8bc61edc2	-6.098605102040382
2	0x400d7ea266dd53ab	3.686833194379195
