src/classify/model/model1.npz (npz, 3102 bytes, 8 tensors)

weight_h_1 f8 [8, 4]
0	0x3fd4b277ab13570e	0.32339278894993206
1	0x3fe01973de467b7c	0.5031070081057432
2	0x3fe6d8d59db1e35a	0.7139690475442919
3	0x3feb6b0152d4f3a6	0.8568121545609884
4	0x3fc8203df5b31e82	0.18848394867949386
5	0x3fcaf31a28052de5	0.21054388956177586
6	0x3fe5951c800345f9	0.6744520664453254
7	0x3fe8024f5fd9d8e2	0.7502819892968342
8	0xbfb9aee36ddba262	-0.10032483512953541
9	0x3fd6bd3502347e74	0.35529828276955944
10	0x3fe871b52d256fc1	0.7638803369295531
11	0x3fe012f8fecd46bf	0.5023159958456843
12	0x3fe5e138f84cad15	0.6837429856872485
13	0x3fef438a2b06fa7e	0.9769945946098486
14	0x3fd0e7ea1e72ad6a	0.26415493939813095
15	0x3fd27c406918eeec	0.2888337160436396
16	0x3fe00620d212fdbc	0.5007480719577226
17	0x3fe733d5a2c4da88	0.7250774554330102
18	0xbfc5a7ee76c1db96	-0.1691873626584452
19	0x3fe2de80b430a33a	0.589660980161262
20	0x3ffb83d159e4ebc6	1.7196820746892043
21	0xbff52bca93cde9dd	-1.3231912397010241
22	0xc0065edd56cb670d	-2.796320608217576
23	0x3ffabb96e8587c21	1.6707982135774346
24	0x3fd4abd66e88323a	0.3229881362356398
25	0x3feb724ed6b80197	0.8577036088682232
26	0x3fdf84060e3f3cd0	0.4924330844050475
27	0x3fe45ab9128b7f0b	0.6360745775418492
28	0x3fe6808227ed9b2b	0.7031870632025393
29	0x3fd7a31f26129d32	0.3693311569026775
30	0x3fed1fa892ccdbfd	0.9101145617668177
31	0x3fe6639506f2a9db	0.6996560226155525

bias_h_1 f8 [4]
0	0xc00031540f2a5a96	-2.0240861115265245
1	0x3ff511a3cd33dbe4	1.3168066039777324
2	0x400af23168e24ae7	3.368258304029371
3	0x3fe04cb472e5323c	0.5093633884476456

weight_h_2 f8 [4, 4]
0	0x3ff982b791a7964f	1.5944133462557095
1	0x3fe144a1cf17096b	0.5396279377676313
2	0x3ffc5870ac29338d	1.7715918278729277
3	0xbff648395f748d14	-1.392632840034655
4	0x40085a5e9ede48ba	3.044125786932537
5	0xbff6962be4599047	-1.4116629524151152
6	0x40160dc6047ab570	5.513450689305827
7	0xc01f4749df046b9b	-7.819617733616634
8	0x4015dc93428c8eac	5.465405502156198
9	0xc003a251103b7c36	-2.4542561786797945
10	0x4024b84cf37858fc	10.35996208995902
11	0xc02e927582093995	-15.28605276453599
12	0x401316842dba48a9	4.771988596434462
13	0xbfea8c26ecdbb0d9	-0.829608404744728
14	0x40206faa3340c35b	8.218095399528172
15	0xc029074d737e86d5	-12.514262780375626

bias_h_2 f8 [4]
0	0x401e6fe9988ab831	7.60928953501393
1	0xc0076f5ba563c97c	-2.9293740197255698
2	0x4031523c0f9212c0	17.32122895542375
3	0xc03ba8b2daa828c7	-27.65897909741832

weight_h_3 f8 [4, 4]
0	0xc00d31787543989f	-3.649155536771175
1	0xc0436236b29a1a71	-38.767294240232225
2	0xc063ba7c5ba7394d	-157.82768042241005
3	0xc04086bcb55a82bf	-33.05263392371625
4	0xc00593d799584442	-2.697188566213783
5	0xc04b116e555e2680	-54.136179610225554
6	0xc06b34512f4d65b2	-217.63491025082254
7	0x40038bbca50e5aac	2.443230905056529
8	0xc012ae80fedd5d55	-4.6704139540300575
9	0xc04b6b9509c30ccc	-54.84048578285146
10	0xc06b8c4703654952	-220.3836686113596
11	0xc04004517930f375	-32.03373637094675
12	0xbfff8480b0aec8f1	-1.969849291007048
13	0xc040cc2764db1a00	-33.594952208502946
14	0xc061440bd92676b4	-138.12644631874502
15	0x40036ef50b2c7d00	2.429178321166205

bias_h_3 f8 [4]
0	0xc0126d6f64e8b233	-4.606870247557299
1	0xc04ece37d904bdf8	-61.611079337420904
2	0xc06ec646d5a648bb	-246.19614679791798
3	0xc0408c1a8ec94d3a	-33.09456047848876

weight_h_o f8 [4, 3]
0	0x402c2615bbad4036	14.074384560488493
1	0x402e851b813b2584	15.259975470037496
2	0xc03b49087581bec0	-27.285285324264578
3	0x4047b23b390482c6	47.3924323341394
4	0xc046e0d58cded27e	-45.75651703720085
5	0x3fe8764aad017f40	0.7644399050732105
6	0x4035e8eac3ee9b05	21.90983223510104
7	0x401ab269450a1e7e	6.674229696982023
8	0xc03afb21089db092	-26.98097280359122
9	0x402c9174a7adbd1d	14.284093131979313
10	0x402e0d964430d87a	15.026537066423987
11	0xc03c64f571d4bd3f	-28.394370188177387

bias_h_o f8 [3]
0	0x4043e5522f04f3d2	39.79157054654901
1	0xc04a205717b23285	-52.25265785409014
2	0x4026a29826751c60	11.317567064090497
