src/classify/model/model12.npz (npz, 3102 bytes, 8 tensors)

weight_h_1 f8 [8, 4]
0	0x3fe579a738abf4fd	0.6711002451772
1	0x3fcf2cec831397f4	0.2435584678671031
2	0x3feaafa2c6d14ba3	0.8339399226336933
3	0x3fd2586a77bada2c	0.2866464776265356
4	0x3fef5400bfab20a2	0.9790042632603397
5	0x3fe214b983f0fdd1	0.5650298668842259
6	0x3fe68f8219d90fa1	0.7050180916635221
7	0x3fe1762675461bc7	0.5456726351266007
8	0x400273440a74b04a	2.3062821213589233
9	0x3feaf2931439ea73	0.8421111483615519
10	0x3ffd7e7c49b7a898	1.84338024898401
11	0x4007b667ffdf328d	2.964065550803133
12	0x3fe4f38463eaafcd	0.6547262145518232
13	0x3fc633ebcc0877e8	0.17345950567772594
14	0x3fc114378703479c	0.13342947094366486
15	0x3fe31d5764d5f28f	0.5973317117164515
16	0x3fe101c15a8a47a2	0.5314642685282147
17	0x3fd848676060cfe6	0.379419178122815
18	0x3fd2168b4d6c2fb3	0.2826259857254129
19	0x3fe78a4555dffd7c	0.7356287648434967
20	0x3fff3793d9b4ae2a	1.9510687355167513
21	0x3ffda40fc4bea6f4	1.8525541005459987
22	0x3ffa88a52afc6cfc	1.6583606413976772
23	0x400c7e0c548966db	3.561546955531282
24	0x3fc1bcfcdd7fc04c	0.1385799485719893
25	0x3fe6efa705bae329	0.7167544471659301
26	0x3fd40ced0569a916	0.3132889321192506
27	0x3facae121327dce0	0.05601555332025909
28	0x3fc3a674490cdee8	0.15351728026302358
29	0x3fee4efdf203be23	0.9471425749633834
30	0x3fe6361b682d4a42	0.6941048655228956
31	0x3fd3bc2dba33b8fa	0.30836051162522404

bias_h_1 f8 [4]
0	0xc00c491bf0cb5c06	-3.5356978237209686
1	0x3fa5d777f3e21e88	0.042659519692333225
2	0xc005b22841a961ca	-2.711990845662716
3	0x3ffcc25f046d8da0	1.797453896805429

weight_h_2 f8 [4, 4]
0	0x40000cc2aeef0365	2.006230703991991
1	0xbff4bdf932b0073c	-1.2963802318558484
2	0x400f0eb565c55834	3.8821819258546615
3	0x3ff72ee1429d1b85	1.448945293626566
4	0x3ff46a486779cd11	1.2759479562781204
5	0x3fcd5d8d1a885c50	0.2294174556306836
6	0x3fe873bbd854d975	0.7641276574347972
7	0x3ffd9299458b8232	1.8482907024955577
8	0x3ff3dafd2ee01892	1.2409641104764302
9	0xbfee2c7dd0cf0674	-0.9429310873312731
10	0x4008ad330d6a9111	3.0845700309893194
11	0x3ff914f79d654b6d	1.56761895640076
12	0x40041bb77c602a78	2.5135335652205946
13	0xbfe8b9cb64ca71e9	-0.7726799934931111
14	0x3fddc3a20cea4f1b	0.46506549130684655
15	0x401388c691392166	4.8835699740523975

bias_h_2 f8 [4]
0	0xc006997e4c2eb604	-2.8249479247813287
1	0x40000655dd1f0f38	2.00309345961605
2	0xc011e6bbabbaa398	-4.475325282351058
3	0xc007159667ef574e	-2.8855407829204642

weight_h_3 f8 [4, 4]
0	0x400a70285970a0b6	3.3047644603248854
1	0x3fe5f319132d927f	0.6859250425882947
2	0x400d69cd1b21083f	3.6766607398467666
3	0x400d6bcec61b81f8	3.6776404835838967
4	0xbff174844f53d375	-1.090946493027528
5	0x3ff79b86e7899676	1.4754704517776225
6	0xbff87e81fd327d74	-1.5308856859699889
7	0xc008f6f4a25a9790	-3.1205837901970384
8	0x3ffd2f15ea29a3f7	1.8239955088595232
9	0x3fbeb3f4dcb1d5f5	0.11993341815999499
10	0x400806a1b4e9e13e	3.00323811854119
11	0x401b516c6981cc36	6.829515121981833
12	0x40155211acf69adb	5.330145552207536
13	0x3ff19cf0a8a20054	1.1008154475421366
14	0x4010b70e869da835	4.178766349194167
15	0x3fd7a4538c42e8c1	0.3694046849956401

bias_h_3 f8 [4]
0	0xc00577cc3baa7913	-2.6834950124167647
1	0x3fffb22f8228c232	1.9810023388237252
2	0xc001e4761fb7ef28	-2.2365534284598603
3	0xc0138a797734c92e	-4.885228979679864

weight_h_o f8 [4, 3]
0	0x401592e2aaf33ba2	5.393442793937455
1	0x3ff54825541923ca	1.3301137242399244
2	0xc0133f7a1d84d8b8	-4.811989270432768
3	0x3fce82ccc14e94ec	0.23836669386688614
4	0xc002595a57cf07ef	-2.29362934685286
5	0x400d2b25a1de31f1	3.646067871659618
6	0x400cde44709d70dc	3.60852897625419
7	0x401059c607475320	4.0876694810183665
8	0xc0174d97b21a7b97	-5.825773985735302
9	0xc01b21364bd8a2fb	-6.7824336863493455
10	0x4027474af3310be6	11.639243697869414
11	0xc009cb007577e8f5	-3.22412196895777

bias_h_o f8 [3]
0	0xbff3bcfba694a710	-1.2336384303147874
1	0xc00c8f83c0fd7137	-3.570075519308513
2	0x4013dd3b194763ca	4.966045756323135
