src/classify/model/model8.npz (npz, 3102 bytes, 8 tensors)

weight_h_1 f8 [8, 4]
000000 00 c2 f4 07 03 8d e3 3f 7e ad 8b f3 00 05 e7 3f
       0.6109633593933381 0.7193608052015603
000010 0d 5d 30 74 c1 9e e4 3f ee d7 c0 80 0f 6a d1 3f
       0.6443793553652611 0.27209842275203655
000020 9d ef c8 0f 5f a5 f4 3f 24 90 da 62 f1 83 df 3f
       1.2903738609884166 0.49242815641105353
000030 5d 80 a9 2d 59 dc de 3f 2b 7c c7 d0 9e 04 ea 3f
       0.48219899615469847 0.8130640104026318
000040 b2 c7 92 1a 9e c6 05 40 39 80 19 e1 09 b7 ef bf
       2.721981246570942 -0.9910935780026257
000050 0c 21 41 b8 c9 60 08 40 af 1d 16 cb 6d 2e f3 3f
       3.047259749877531 1.1988351758062483
000060 16 cf fe 86 4e c8 d0 3f f8 4f ad 78 6f 1e ba 3f
       0.2622257536233844 0.102026907884749
000070 6a 6c 02 a9 8a 1c de 3f f8 66 27 ab ef 43 bb 3f
       0.47049204354124774 0.106505374227165
000080 cb 36 7b ea 79 32 e3 3f 91 03 a8 62 cc 80 e7 3f
       0.5999116496766076 0.7344724585419603
000090 9d 86 ae 9f 60 43 f0 3f 79 01 9a a3 7f d3 c2 3f
       1.0164495694702176 0.1470794247470726
0000a0 62 ab 5a 24 28 9b 00 40 ba d7 2e 24 4e 7d f1 bf
       2.0757601585550427 -1.0930920995137812
0000b0 10 09 9a df 29 97 0c 40 a7 c6 43 96 4e 04 f1 bf
       3.5738103360064386 -1.0635515088764949
0000c0 e0 df 5e c9 92 68 b6 3f 25 08 2b e8 53 3b ec 3f
       0.08753316322588445 0.8822421583684031
0000d0 b8 d1 e4 cc 0b 71 bc 3f 30 93 88 7e 89 09 e4 3f
       0.1110999465207162 0.6261641951901762
0000e0 a0 62 a2 19 d2 4e 9f 3f e4 f3 80 28 88 4f e6 3f
       0.030574114622683113 0.697208479985076
0000f0 a2 ce 64 bd 82 75 d3 3f 20 67 50 3a bd 96 ca 3f
       0.3040472840832341 0.20772519442908166

bias_h_1 f8 [4]
000000 c4 01 09 a8 6a 72 10 c0 48 2d a0 d8 2a 10 dd 3f
       -4.111734986829507 0.4541117778287185
000010 43 07 c2 9e f9 57 00 40 d4 86 ab 1b 23 01 fa 3f
       2.0429565813982733 1.6252776223049539

weight_h_2 f8 [4, 4]
000000 25 c9 eb db 06 8b 07 40 d0 9b 39 a5 2a 75 09 40
       2.9428841763812152 3.182210245915009
000010 36 a5 e3 9f b2 5d 00 40 fe fa 7b cd 7e a8 12 40
       2.0457508555743074 4.664546213810125
000020 be 5b f2 e5 e8 19 f1 bf a3 29 cb b6 4d 7c f2 bf
       -1.068825624684663 -1.1553475513816032
000030 2f 70 40 d1 29 e1 e3 bf 93 23 fc df 2b 65 f8 bf
       -0.6212357603976723 -1.5247000455294468
000040 4c 8e ce 91 da 17 f7 3f b7 c1 a8 d0 de 5f 14 40
       1.443323678548853 5.09362340955743
000050 52 73 bc f4 ec 62 fa 3f e6 55 a3 cb 80 eb 04 40
       1.64915176010182 2.614991751596551
000060 37 31 9e ec 8a b8 f1 bf 3f c2 4c 06 d9 b1 f2 bf
       -1.1075543635261746 -1.1684198614203891
000070 c3 8a 96 36 7f 3a e8 bf 20 6b ea 96 89 f5 01 c0
       -0.7571407381222673 -2.24489133742226

bias_h_2 f8 [4]
000000 f0 46 a8 75 9f 81 f8 bf 94 35 36 2b 59 55 ec bf
       -1.5316462131490276 -0.885418495557746
000010 e1 bb fc 49 1a 1f f6 bf ab 82 ec 72 62 17 04 c0
       -1.3825934305311807 -2.511418245165563

weight_h_3 f8 [4, 4]
000000 a0 be 53 96 c8 16 04 40 2c e3 30 53 33 64 f1 bf
       2.5111247772509415 -1.0869630098006366
000010 ca 83 0d 67 4a 50 f4 3f fe 25 f2 86 f9 38 e9 bf
       1.269602205800981 -0.7882049213087041
000020 1e c5 8d 32 cd 0f f5 3f 35 0c a1 69 ee 8e 0d c0
       1.316357800937403 -3.6947906734726765
000030 33 aa ba fd a2 da 0b 40 a8 fc df 4f b7 52 07 c0
       3.4817561934080685 -2.9153887024145497
000040 8d 03 b3 45 9e f5 f5 3f 2f 42 52 2b 0a 15 ef bf
       1.3724653933170174 -0.971318325626333
000050 ae 6e 6d 31 57 cd e3 3f 6d 8e 6c 04 57 c9 f7 bf
       0.6188159909611011 -1.4866552517713914
000060 77 f0 c3 f5 f3 25 14 40 c7 b8 7b 3d f0 0e 05 c0
       5.037063446125209 -2.6322941592580693
000070 8c 2c f3 a3 41 b7 01 40 d6 1a d0 8f be 49 01 c0
       2.2144806679330653 -2.1610079989799074

bias_h_3 f8 [4]
000000 7e 81 b5 5b 49 02 17 c0 90 9b ba cc be 03 00 40
       -5.752232964471089 2.001828765339674
000010 4e 52 84 64 7a 28 03 c0 ec e0 13 c1 3e d9 fb 3f
       -2.3947646954423254 1.7405383627029165

weight_h_o f8 [4, 3]
000000 16 e0 97 62 5f 79 08 c0 3c 0c 2b db 32 57 21 40
       -3.0592639639471697 8.670309876446588
000010 d4 6d 9b a4 8b 5c 0e c0 b7 08 d8 0c 36 5a fc bf
       -3.7951882228787586 -1.7720242025102786
000020 15 9a ab b1 12 0b 02 c0 01 71 a8 ff 94 70 14 40
       -2.2554067497724284 5.109943384795998
000030 82 a7 14 3c d2 85 00 40 58 c8 63 b1 1b e2 0b 40
       2.0653423970988465 3.4854043825699073
000040 56 e6 77 b7 b2 e6 10 c0 5d 7c bf b4 2a 99 e9 bf
       -4.225291125004864 -0.7999471216425139
000050 83 3d b9 48 07 fa f9 bf 39 ec bf 78 a2 dd 12 40
       -1.6235421028867172 4.716440092767749

bias_h_o f8 [3]
000000 79 aa ee 08 7e 8f 0c 40 9d 07 2b 70 90 44 0a c0
       3.5700646112284713 -3.283478618920482
000010 a8 49 6e 4b 91 40 dd 3f
       0.4570658909443872
