src/classify/model/model9.npz (npz, 3102 bytes, 8 tensors)

weight_h_1 f8 [8, 4]
000000 2e 1a 0c d3 5b 2f ee 3f 7d c9 83 f3 3d 70 ef 3f
       0.9432810899750785 0.9824514156482987
000010 d4 99 f9 b2 f1 da e9 3f 02 79 6e dd ea 56 ef 3f
       0.807976579247049 0.9793600392183921
000020 68 96 b9 8c b6 72 f0 3f 4f da 19 e7 58 7d e6 3f
       1.0280061242168816 0.702801181191555
000030 e9 d5 3c 21 74 10 ed 3f e2 45 8c ac 4b a4 db 3f
       0.9082585000202786 0.4319028077162256
000040 35 35 88 43 f9 e6 f5 3f 41 6d 75 18 ec d4 03 40
       1.36889006023132 2.478965941508847
000050 43 20 dc 12 60 40 04 40 ca d8 e9 4a 3c c9 f2 3f
       2.531433245985711 1.1741297651583857
000060 29 d9 2b 1e 6e b3 e7 3f ab 25 a0 fb 06 f7 e4 3f
       0.7406530942232951 0.6551546968996055
000070 1f 49 25 b7 a2 44 e5 3f b0 4a ea f9 b3 b8 c6 3f
       0.6646283700049799 0.17751168921366434
000080 3a 8e 01 ca ca 22 e9 3f e2 66 81 86 cd 06 f2 3f
       0.7854970879965955 1.1266608480568086
000090 e3 b3 bc 8b 32 f1 d9 3f 39 70 ee 07 02 b8 e6 3f
       0.4053465237255393 0.7099619059476999
0000a0 51 2d 32 12 a3 fe fe 3f 71 41 0c 08 9e 4e 05 40
       1.9371672354489713 2.663387358545315
0000b0 27 93 85 14 02 53 fa 3f 21 64 cb 47 d7 d9 00 40
       1.6452656556732081 2.106367646116738
0000c0 56 89 5f 81 ce ed ed 3f 23 e2 7e 64 4a 95 ea 3f
       0.9352791334934334 0.8307239496999198
0000d0 1e d9 66 24 76 e8 e1 3f 3e e3 da 47 ab 02 e4 3f
       0.5596266470882119 0.6253258136194757
0000e0 16 47 8b 2a d0 f4 e7 3f af 96 4f 46 3d 38 e2 3f
       0.748634417623381 0.5693651555308942
0000f0 f4 a7 a9 17 c0 a8 ef 3f 3a cd 93 e5 fd bd d6 3f
       0.9893494093096238 0.3553461782423316

bias_h_1 f8 [4]
000000 b7 05 e4 b9 ed 0a f5 bf 99 20 b1 b1 6e e5 f0 3f
       -1.315168119559855 1.0560137692537295
000010 71 a4 4e 92 f5 e9 0e c0 7d 36 73 a4 08 07 d4 bf
       -3.8642379217386 -0.31292930659842694

weight_h_2 f8 [4, 4]
000000 58 a3 a8 d3 56 43 ff 3f eb 61 ee cf 04 72 06 40
       1.9539402263564707 2.8056732411025584
000010 82 46 68 a1 d4 6d f3 3f df f2 1a 5b 1a 47 f9 3f
       1.2143141083692233 1.5798591193007991
000020 be 18 33 81 e8 4a e7 3f 20 f2 9a 38 78 5c 11 40
       0.7278940699987044 4.3403023571559345
000030 c2 bb 12 99 69 51 fa 3f 6d c8 37 22 5c 4c e1 3f
       1.6448760966702456 0.5405712765043639
000040 b0 36 a7 63 bf 44 10 40 30 6a ec fd 3f e2 01 40
       4.067136342125806 2.2354736173413343
000050 06 da 8f 0b 56 60 f2 3f 30 2d 9c 00 d5 ae 03 40
       1.1485195590627213 2.460367207304124
000060 dc 1b bc 42 91 8b f5 3f 39 36 5d a8 b9 fc 06 40
       1.3465740782573823 2.8734009889074312
000070 3a f8 b3 ea 90 6b e5 3f c5 97 b9 ff 79 ea e6 3f
       0.6693806251566976 0.7161226267460213

bias_h_2 f8 [4]
000000 99 0e 4e da 9b 25 14 c0 e5 67 9e 38 b8 36 07 c0
       -5.036727343572829 -2.9017185614911676
000010 cb 94 ff 30 d0 7d fc bf ba f7 1e b5 ef 01 0a c0
       -1.780716124915943 -3.2509454870296084

weight_h_3 f8 [4, 4]
000000 ee 7e 39 96 4c 1a 11 40 df 5b 38 8f d4 6c 11 40
       4.275682780513064 4.356279599966881
000010 47 fb 2a b8 30 09 01 c0 13 f9 5a 52 9d 1b 0b 40
       -2.1294874561421326 3.3884836610806217
000020 b6 4c bf ff 37 19 f1 3f 45 58 cb 46 af 33 f2 3f
       1.0686569204452048 1.1376183286097483
000030 a4 d3 bc a4 6d 70 07 c0 f8 b9 ab f3 7c 53 19 40
       -2.9298966283917753 6.331531340938902
000040 ca a6 8f 4e 11 f6 c0 3f 09 94 59 51 55 1c e9 3f
       0.13250938735955337 0.784708651434472
000050 1e ce b4 e1 a2 db da bf 36 e4 e6 65 20 3e 02 40
       -0.41965553323390903 2.280335231884716
000060 bc 48 bd 11 44 e6 01 40 2e d0 4a d3 ba 77 03 40
       2.2374345193757943 2.43346180984556
000070 fc f3 ac 90 95 6a ef bf 9b fc a6 ec c2 b1 f9 3f
       -0.9817607713408729 1.6058987850408701

bias_h_3 f8 [4]
000000 8d 4f 4c a6 09 91 11 c0 c9 81 f2 dd c9 89 14 c0
       -4.391638372810019 -5.134559123922778
000010 71 89 79 c0 14 ac 03 40 ca 40 b9 73 6c 2f 10 c0
       2.4590239560213196 -4.046312149221373

weight_h_o f8 [4, 3]
000000 52 c4 09 a4 c1 09 04 c0 6b 17 a4 e3 42 0d 17 40
       -2.504763871715604 5.762950474634503
000010 1d e1 af 97 c1 21 00 c0 23 2f 48 7f 5a 0a 06 c0
       -2.0164825296925657 -2.7550554222015236
000020 e2 67 5d 32 a0 2b 1a 40 68 43 65 c0 78 62 fe bf
       6.542603289557492 -1.899040938897281
000030 18 35 4b 96 d1 45 e1 bf e8 dd 78 18 77 8d 0c c0
       -0.5397727904725427 -3.5690748130689265
000040 3a 85 31 6d 16 91 15 40 8b 85 c4 72 f7 8b 18 40
       5.3916871129488815 6.136686127896051
000050 6f e2 84 fc e2 c8 03 40 49 fd bc a1 1a ae 1d c0
       2.473089192204774 -7.420023467216489

bias_h_o f8 [3]
000000 30 c4 13 84 f4 e6 e7 3f 5a 0d 2f d3 e0 36 0d c0
       0.7469427661545804 -3.651796007035654
000010 a7 8c 62 5a 8d 42 0e 40
       3.782496172077646
