src/classify/model/model3.npz (npz, 3102 bytes, 8 tensors)

weight_h_1 f8 [8, 4]
00000000: 2d77 0cfa 527a e83f b0b5 8afb 81fc cc3f
00000010: d550 6513 04cf e83f 5be9 d42b 004d e03f
00000020: c9f0 86d2 0efa cf3f a534 5c92 b25f 883f
00000030: e860 5178 d8a1 d93f a666 392d ea84 d83f
00000040: 84f0 42f5 f290 a63f ab38 226b d134 ebbf
00000050: 9bc0 f3da bb0f a1bf a512 aec1 b4b3 dcbf
00000060: 74dd d06d c940 ef3f 3139 ddd7 ac6b e73f
00000070: 22f2 e613 c09a d43f b2fd e416 c199 d73f
00000080: f4ec 9eda 8e8b db3f 24dc 2984 0d70 eb3f
00000090: 4eba 2e3e f510 ce3f 039e 3916 0791 c33f
000000a0: b6bf a077 2cca ea3f e584 b42f e2fa f63f
000000b0: 08bd 3363 f543 ec3f 11b5 9138 ac31 f33f
000000c0: 20eb 3245 eb01 de3f 00b6 e0f8 165b 503f
000000d0: ba4d 84e6 8c86 ec3f bb09 e193 022e e53f
000000e0: d457 4dc6 3c14 d63f c929 3925 9ee9 e23f
000000f0: f45f 523d e009 ce3f a07f 011b 2721 a93f
0.7649321445239586 0.22645592481914667 0.7752704981635598 0.5093994957053768 0.2498186614956295 0.011901278583105255 0.4005032706240983 0.38311247269084914
0.04407462352671224 -0.8501975147680886 -0.03332316444164115 -0.44846838869151845 0.9766585488168134 0.7318939415070301 0.32194520896499246 0.36875941501417764
0.43039294576347165 0.8574283200567874 0.23489251648193704 0.1528633936425053 0.8371794067843357 1.4362508643610508 0.883295720819576 1.1996271333439987
0.4688671279688368 0.0009982799852069624 0.8914246084481683 0.6618664634955204 0.34498519292298835 0.5910177924172838 0.23467638963916182 0.049081060453999514

bias_h_1 f8 [4]
00000000: f579 9503 c1ff d1bf adf4 bece 767f e1bf
00000010: 54d0 d69d d80f e93f 3a21 6461 71f3 fdbf
-0.2812349829672763 -0.5468095815664548 0.7831843455119363 -1.871934299882993

weight_h_2 f8 [4, 4]
00000000: aa09 f7ff dd5e 1ec0 83dc 1525 45d4 cfbf
00000010: 50c5 d4c3 4f18 07c0 8939 fa57 9757 fabf
00000020: 6445 8fd5 7a38 18c0 9b65 bf99 be56 e13f
00000030: 7271 e0be 9002 02c0 ce98 3dee ee4e e6bf
00000040: b27f d8d7 f3eb 1dc0 6163 5fc7 6b6a c43f
00000050: 5f7e ca8d ea6c 09c0 321b 55ee 40f9 fdbf
00000060: 820b d826 9158 15c0 8309 e0cf 68f3 b83f
00000070: 12ec 4fd6 dd64 01c0 2190 7fc0 9172 dfbf
-7.592643737271297 -0.24866546927271224 -2.8868708895976525 -1.6463845669382826 -6.055156075353214 0.5418389323123621 -2.2512526428455937 -0.6971354153763742
-7.480422375287093 0.15949771151533823 -3.1781817510052828 -1.8733529386387997 -5.336491209923112 0.09746413302494798 -2.17425124579814 -0.49136775778447556

bias_h_2 f8 [4]
00000000: 3bbe 606f c878 22c0 f63a f70a dd3f 0040
00000010: 724d 21ec 2b4c 10c0 e5fd 65e4 850d 07c0
-9.235904198226413 2.0311833244990067 -4.0743863005949255 -2.8816030353188915

weight_h_3 f8 [4, 4]
00000000: c2d4 ca6f 71a2 1cc0 0669 5583 b902 0dc0
00000010: fc84 1865 9715 23c0 570f 45ba cf66 18c0
00000020: d631 9fa4 5aac 29c0 cfc5 8458 ad45 1bc0
00000030: 59e8 4710 8770 31c0 6ccc 3c6b 4a5c 24c0
00000040: 6e4d 7564 80b5 23c0 d6e3 353f 68d3 13c0
00000050: def1 8f6e 4f4b 29c0 bafd 7622 482c 1fc0
00000060: 8d2a 69df f370 26c0 0938 c790 f3be 19c0
00000070: 4274 ae28 0a23 2ec0 5da6 4bb5 f54f 23c0
-7.158635851626231 -3.626330400508894 -9.542170676463222 -6.100401792969783 -12.836629051621383 -6.818044074157526 -17.43956090694005 -10.180255271121688
-9.854495181388042 -4.95645235792559 -12.64709039218081 -7.7932439217688 -11.220610601031945 -6.436476003798824 -15.068436881347342 -9.65617147968731

bias_h_3 f8 [4]
00000000: 1a01 fa3f e4b4 2dc0 9f31 8c19 2184 1ec0
00000010: cb8a 90ec 642e 33c0 afa5 83b8 ef93 25c0
-14.853303908603767 -7.6290325156991505 -19.18122747925626 -10.78893829924604

weight_h_o f8 [4, 3]
00000000: e697 e25e 3804 19c0 9e60 18ea 84a9 ff3f
00000010: c272 23fb 7cf4 1440 d710 a320 1a8e 2cc0
00000020: 219a c496 463a 1040 eab3 5457 522d 2640
00000030: 08e3 4540 0111 26c0 f48c 3f8f 339c 0b40
00000040: 21ec 630a fe0b 2040 973e b72d ab37 2bc0
00000050: 9892 78b4 6ba3 1040 589d 8e09 8806 2540
-6.254121286945496 1.9788865227074335 5.238758014715758 -14.277543086915484 4.056909900426519 11.088518838014313 -11.033212669879063 3.4512702170628646
8.023422550866657 -13.608727863901818 4.159590549334688 10.512756632479679

bias_h_o f8 [3]
00000000: 0acb a4db 276b 22c0 04c9 d239 5247 02c0
00000010: 123b 4efd a283 2840
-9.209288467279766 -2.284824802155642 12.257102886008884
