src/classify/model/model.npz (npz, 3102 bytes, 8 tensors)

weight_h_1 f8 [8, 4]
00000000: b08d d73d 070d ce3f 3956 4d8b c524 e63f
00000010: dbca d9b1 f7e8 e33f e432 f7cc f54b c43f
00000020: 6970 14d7 1489 f23f 8b99 1634 07d2 eb3f
00000030: de60 52ca cbd5 df3f 7911 1894 5b92 e83f
00000040: 5c0e eccc ae09 f53f 186d 1ab5 c6fb f43f
00000050: a2b2 fa9a 8401 96bf ea35 5085 450f d13f
00000060: e477 760c a35c c03f cacb 1e09 1e1b e93f
00000070: 5c8d 5ec3 9ded d63f f4e4 8411 00af ea3f
00000080: cf33 f3a1 3b2e e33f 96f0 3525 9cb8 9b3f
00000090: 382a 5087 a09a c03f d98d 1850 30fa dd3f
000000a0: 34b1 7bc8 a5fc f6bf 0ba2 0cb3 6c16 10c0
000000b0: 2c1c b4c8 32ce ee3f fc07 7136 c361 01c0
000000c0: eed8 8c9c 67b8 e73f ca94 f763 94aa d43f
000000d0: 2dc6 00de bdaf ef3f 9489 cfd4 36c1 cf3f
000000e0: 18b3 4320 81af d43f d829 dbfe c965 d93f
000000f0: 78e0 ddc6 9572 c93f 143e 270a 456e c83f
0.23477259177807985 0.6919887276405411 0.6221884225509159 0.15856812007986953 1.1584671403461704 0.8693882005070902 0.4974240756796585 0.7678659336529982
1.3148639683503438 1.3114687990517435 -0.02149016567152507 0.2665571023834149 0.12782705410512485 0.7845602205401232 0.35825294570004984 0.8338623373194012
0.5993936694227332 0.027071418543969182 0.12971884352767105 0.4683953077494301 -1.4366815406202251 -4.021899030347877 0.9626707000724131 -2.1727356198543912
0.7412603433247378 0.3229113556138371 0.990202840423256 0.248083928977462 0.32321193838906614 0.39683771026889536 0.19880935869491956 0.19086516376272356

bias_h_1 f8 [4]
00000000: c2e0 0f2b b27e f53f cfa5 b50c c4b5 0240
00000010: 1abe 2b48 c6e5 e1bf ff93 c83d adfb e83f
1.3434316331968579 2.338752841275642 -0.5592986497485442 0.7807222563466211

weight_h_2 f8 [4, 4]
00000000: 1d29 91d4 0064 b7bf d480 8a9f a767 eebf
00000010: fc25 f926 443c 0640 fd94 fc6e 168c 0640
00000020: e930 6471 cd35 dd3f e7cf 3f4c ef78 f8bf
00000030: b103 4beb 2a78 1140 f7c6 66ae deca 1140
00000040: bf98 867a 1ba6 bb3f c549 bb20 00a0 d0bf
00000050: 04f3 9e9b bf8a ff3f aa7a d707 5154 0040
00000060: 069d 20e8 70cc dd3f cd9e deb4 f835 d8bf
00000070: 26c7 f481 f203 0340 545d cb19 1f25 0340
-0.09136967839836925 -0.9501531711612423 2.779426865080266 2.818402163584891 0.4564088446939097 -1.5295250872122723 4.367351223424451 4.448115086577437
0.10800334683753741 -0.25976565548367275 1.9713741377774463 2.041170178664591 0.46560309094134344 -0.3782941595368186 2.376927390368013 2.39312572624082

bias_h_2 f8 [4]
00000000: 2c87 f254 224c c9bf 7012 26f1 d5d8 15c0
00000010: 25c6 0bec f7e2 2540 cc61 6346 abf3 2940
-0.19763592861004875 -5.461753623913509 10.943297745167976 12.975916099197

weight_h_3 f8 [4, 4]
00000000: 8f9e 2da8 9d59 e8bf c64f a862 7e30 f3bf
00000010: a581 b05f 4e77 d4bf 1255 ec62 2ab6 12c0
00000020: 034d b66a a208 f0bf c25b 6d56 162b f4bf
00000030: 8e4f bb27 c0d1 ecbf 23ae 327a 80b0 1ec0
00000040: a8c4 6b67 be39 0bc0 8c98 30c9 1477 29c0
00000050: 5ef8 01dd ddc8 0fc0 94a9 4c99 ff5a 52c0
00000060: 302d ccc4 5bee 0bc0 a82d 3f75 ff5e 29c0
00000070: 6689 c418 26c1 0ec0 6448 86ef 479f 52c0
-0.7609394345026476 -1.1993392804915728 -0.31978186936069114 -4.677896066355304 -1.0021080177728556 -1.2605193496763012 -0.900604322052901 -7.672365102141643
-3.403195198036503 -12.73258045881473 -3.9730794206835034 -73.42185051428379 -3.4913859724817016 -12.685542739832115 -3.8443109450319524 -74.48876560319474

bias_h_3 f8 [4]
00000000: 59ef a92e a6d5 0ac0 6c89 c262 4cd7 2dc0
00000010: e403 f490 360a 13c0 0bb5 1180 0496 54c0
-3.3543208737955124 -14.920504652259034 -4.7599737786231096 -82.34402467469424

weight_h_o f8 [4, 3]
00000000: c551 27b8 5a07 2240 a3e0 4237 a4ea 1640
00000010: ee8b 17ed 2a55 35c0 6cfd 0ce3 1a0a 2040
00000020: 7254 cafe 7df9 1640 856e 84aa 37bf 34c0
00000030: b29f 1435 7623 2240 c2c0 e246 fe96 1840
00000040: 625a 0795 2e2e 37c0 0bbf 05a6 a3f2 1540
00000050: 0d7b 40ca f1cb 2040 c5ba 7767 f135 35c0
9.014364008712514 5.72914205880821 -21.332686250923807 8.019736380897221 5.7436446963302945 -20.74694314702221 9.069261225478702 6.147454364385512
-23.180398287100964 5.4869523945815315 8.398329086657691 -21.210714785319187

bias_h_o f8 [3]
00000000: f4fc 76da b49a 2b40 2086 17f4 7a6b 0740
00000010: c868 3ad3 3246 3dc0
13.802161051773943 2.927480608909505 -29.274213029632648
