src/classify/model/model4.npz (npz, 3102 bytes, 8 tensors)

weight_h_1 f8 [8, 4]
000000 84 b8 0d f4 4b 48 e9 3f e0 a1 b4 df 6f 74 cc 3f
       0.7900752798721133 0.2223033754646755
000010 86 01 a2 c1 28 a1 d7 3f 58 d8 cc f3 4c cf d4 3f
       0.3692113772340452 0.32515262421236946
000020 35 f7 f3 35 19 bc e8 3f 49 0d c7 bf 58 d2 df 3f
       0.7729612401742317 0.49721354225421927
000030 6f bb 75 75 d7 a7 e6 3f 68 18 14 fb e4 80 ef 3f
       0.7079884809626104 0.9844841865422156
000040 0e 17 db 88 c7 fd ec 3f 7b ef c2 9a 98 cd e1 3f
       0.9059789345708127 0.5563471815762421
000050 b6 f3 88 99 cf 64 d5 3f 88 04 64 d7 ed a4 c1 3f
       0.3342780112614564 0.13784573571323144
000060 a0 e3 76 69 c2 af d5 3f 02 9e c3 c8 75 a9 d3 3f
       0.3388525037694823 0.3072180233561711
000070 e8 0a d5 ee ae 7c df 3f c0 60 c3 91 e6 e5 be 3f
       0.4919850666375809 0.12069550570174936
000080 aa 24 9e 6f b7 e1 ec 3f 81 c6 f8 27 e9 c0 ce 3f
       0.9025532894167061 0.24026216937777536
000090 57 3f d2 c9 38 b4 e3 3f a5 3f 26 cd 7e d2 dc 3f
       0.6157497350522857 0.45034761461374223
0000a0 81 41 41 94 9b c9 e4 3f 54 d2 c2 01 a2 3b e0 3f
       0.6496103187183025 0.5072793993372877
0000b0 fd a3 10 d2 d3 14 b7 bf f0 4f b9 db b5 97 cd 3f
       -0.0901615512708673 0.23119233349518664
0000c0 60 31 c8 56 37 bf 96 3f 78 e4 08 cd 12 77 bc 3f
       0.022213806792977464 0.11119191652041305
0000d0 de b1 6a d4 ce 1d d3 3f 00 92 a4 0f 4a 8d 6d 3f
       0.29869433158708414 0.0036074110513644175
0000e0 94 03 ce f0 ea 56 e8 3f 14 3b d9 0e 5d bb db 3f
       0.7606100753038043 0.43331076097540344
0000f0 e0 8d a8 b3 cc 67 df 3f e3 b8 14 b5 79 40 e3 3f
       0.4907104258038242 0.6016205345856885

bias_h_1 f8 [4]
000000 43 14 ee 1d 26 31 d1 3f c7 af 8b 5f 6a 0a d0 3f
       0.2686248104367374 0.25063571291570635
000010 25 4c 0a bd f3 2b f0 bf ac b3 4c 0a 0d 4d f1 3f
       -1.0107304939636006 1.081311264260175

weight_h_2 f8 [4, 4]
000000 e0 09 07 ea b4 e6 db bf 69 79 3e 16 1c 7b ed 3f
       -0.4359562192368269 0.921278041310683
000010 43 59 4b 74 3a 49 f1 3f 1b f0 f1 0f de b0 dc 3f
       1.0803780119654938 0.44829513127456416
000020 5f dd f1 79 e2 d6 e2 bf 81 13 a3 49 d0 c8 e9 3f
       -0.5887310392126145 0.8057633817885376
000030 21 2d c1 0c b4 0e e5 3f 45 a8 b5 6d c0 49 d7 3f
       0.6580448388207608 0.36387644494846355
000040 5d 4f 40 bc 26 b4 e0 bf d4 1e ce d4 c9 a4 d8 3f
       -0.5219911267072167 0.38505788594964696
000050 a4 65 0f 95 03 7a e0 3f 5d da 4d d0 80 b7 e8 3f
       0.51489428628263 0.772400290340396
000060 c7 22 92 69 a9 0e f6 bf 7e 06 8b e5 d0 9c d9 3f
       -1.3785795329915105 0.400196289218094
000070 05 0f f2 92 32 43 ea 3f 75 b9 1c e3 37 e0 d2 3f
       0.8207028265028106 0.29493519953657393

bias_h_2 f8 [4]
000000 4a e4 f4 9c 7b d2 10 c0 15 f4 70 27 60 79 f6 3f
       -4.205549671599394 1.4046327152893856
000010 cb 51 c3 d6 2f fa f1 3f d9 c3 c7 e6 3f 0a f7 3f
       1.1235807789972678 1.440002347455666

weight_h_3 f8 [4, 4]
000000 cd 07 79 29 e6 97 fc bf ef 71 fe a2 70 02 03 c0
       -1.7870847339659008 -2.3761913999462574
000010 d8 d2 a7 90 27 cf f2 bf 9a 71 2a 9d 41 4b f7 bf
       -1.1755748415572977 -1.4558731211937812
000020 d2 dd 28 9a 65 a6 28 c0 85 f6 01 38 7e 6f 28 c0
       -12.324993913162789 -12.21775984786951
000030 79 04 15 17 56 24 1d c0 68 5d 0d 94 f3 e7 23 c0
       -7.285484657914929 -9.953030230170683
000040 11 43 c5 b1 63 eb 27 c0 73 59 85 f1 98 30 28 c0
       -11.959744983033973 -12.09491686585236
000050 ee e9 13 6d e4 e4 18 c0 eb f6 89 06 63 d8 23 c0
       -6.223527626362268 -9.922630504933712
000060 7f 6e d4 a4 b8 41 27 c0 44 27 30 67 90 0d 26 c0
       -11.628361845904918 -11.026492333057497
000070 b9 6e 66 c4 d2 57 19 c0 05 72 42 cd 64 2f 24 c0
       -6.335764950515732 -10.092565931664476

bias_h_3 f8 [4]
000000 4f 12 30 35 ec cc 2e c0 ec fd 0a 5e 76 6d 2b c0
       -15.400239622228723 -13.713793696252615
000010 c6 60 8b 81 cb 88 23 c0 2e 1d 90 02 5b 04 27 c0
       -9.767177627815169 -11.508506851284064

weight_h_o f8 [4, 3]
000000 c8 aa 95 e1 17 17 e9 3f e0 36 d5 7e 9d 85 15 40
       0.7840690046262688 5.3804836099277225
000010 d0 29 e4 eb 8d 95 13 c0 b1 43 27 a7 5f b7 06 40
       -4.896049199868187 2.839537912259822
000020 2e 28 d8 cb 70 51 12 40 92 57 e6 56 5d 74 15 c0
       4.579531846111463 -5.363637311753239
000030 16 50 8b 80 58 0c f8 3f 72 97 11 68 50 59 0d 40
       1.5030140897042705 3.6686103945129895
000040 3c 26 95 92 74 06 0c c0 91 98 16 7d f2 a7 d4 3f
       -3.503152032066991 0.32275068488741804
000050 6d fb 78 11 f3 7a 16 40 b0 be 5a 22 ef 2b 0d c0
       5.620067856797374 -3.646452206034006

bias_h_o f8 [3]
000000 96 0e 08 f7 fb 77 16 c0 a0 89 16 07 50 07 e8 bf
       -5.6171721075694645 -0.7508926523626549
000010 d0 3e 41 9b 7a ef 10 40
       4.233866144044171
