src/classify/model/model6.npz (npz, 3102 bytes, 8 tensors)

weight_h_1 f8 [8, 4]
0.03384487127714464 0.900674272080268 0.7528494216553013 0.5426768393124293 0.8733614178093604 0.580454533453181 0.30584067912155966 0.5195127417133395
-1.2645061976080196 0.127748954388331 0.1454969211588189 0.39391340733511215 0.3450790903506583 0.638802874600551 0.9047513758244963 0.7358049033964751
0.29412164886729886 0.03954368139708004 0.26088501959283633 0.7447804291201691 0.26401026550547313 0.33028995497290486 -0.13501862983313284 -0.11871586456031659
0.5311537503091003 0.08485076033644323 0.23077509169526977 0.6893978496046784 0.18956427190971725 0.07638343642800971 0.3794157456738432 0.6641192797583694
00000000: e09a 8b6e 1d54 a13f 0fde ddd9 52d2 ec3f
00000010: 194e 9aab 5717 e83f ce97 a4d1 9b5d e13f
00000020: 678a e2a4 93f2 eb3f 1ae2 bf62 1593 e23f
00000030: 0e44 a7c8 e492 d33f 6973 702f d99f e03f
00000040: 580d c5d9 6a3b f4bf 1019 99e6 135a c03f
00000050: 5add 05a3 a49f c23f 7674 7d94 e035 d93f
00000060: 7aba e59b c615 d63f 4601 e0b9 1271 e43f
00000070: c2ab 4528 b9f3 ec3f aa60 8ab9 b68b e73f
00000080: ac8f bb9b e3d2 d23f 6951 bac4 113f a43f
00000090: 29b9 ca14 57b2 d03f ffb3 38c4 3dd5 e73f
000000a0: cadf 0950 8be5 d03f 8194 b37a 7823 d53f
000000b0: e0f4 bd5b 4a48 c1bf 818c cdb3 2964 bebf
000000c0: f335 5726 36ff e03f d08d af88 c7b8 b53f
000000d0: c802 c8c7 098a cd3f a683 3f14 8c0f e63f
000000e0: 10d0 2b5e a443 c83f e815 6a69 dd8d b33f
000000f0: 4c6c d0fa 5848 d83f 9591 6613 7740 e53f

bias_h_1 f8 [4]
-0.97125624188379 -0.6702326507996945 -0.19714292195885705 1.6428428681425677
00000000: e2a7 5df8 8714 efbf a8ac 7cbe 8b72 e5bf
00000010: fbbf 39b1 fa3b c9bf 093a 729a 1549 fa3f

weight_h_2 f8 [4, 4]
0.3782896649000423 0.5616034208992162 0.3116596375374527 -0.41192524859653934 0.45003630437105513 0.18531129967923923 0.23334603027824496 -1.116588723321217
0.24398096558286936 0.6525651526256072 0.2832359975320188 -1.3193750710489187 1.1017257814278743 0.5307958095888206 -0.6580301844812779 -2.042162121256339
00000000: 5145 cada e535 d83f f4ae c2bc a7f8 e13f
00000010: 7f38 ad43 3bf2 d33f 869a c7b7 fb5c dabf
00000020: 1c54 5212 65cd dc3f a1cd d9d9 47b8 c73f
00000030: 8426 5960 48de cd3f cbf3 1b23 8cdd f1bf
00000040: c230 03ae c43a cf3f cf28 a150 d0e1 e43f
00000050: 1acc 9ce0 8920 d23f 2801 d508 291c f5bf
00000060: c348 8636 aba0 f13f e235 617e 47fc e03f
00000070: 0c18 4451 950e e5bf 5f68 1f18 5956 00c0

bias_h_2 f8 [4]
0.7553182823165913 1.2638586725782894 -1.818849667973384 -3.202363783840617
00000000: 67dc 133f 912b e83f ead5 17df c338 f43f
00000010: 0b94 041c 021a fdbf 0fec 4be7 709e 09c0

weight_h_3 f8 [4, 4]
-2.6647780229813556 -2.521157154027472 -4.047838161247726 -3.5894825314676506 -2.648049047838148 -2.7748522707427923 -4.440935472522219 -3.5114254525162383
-1.3194818764331568 -1.370213531990416 -2.4970301893292697 -1.5395996127076967 -0.8585024624066726 -0.30420834763087795 -1.354315733374694 -1.0734133086964472
00000000: 886f de23 7751 05c0 d4fe 2471 542b 04c0
00000010: 313d a87c fc30 10c0 1cbc 119e 42b7 0cc0
00000020: ac59 d556 342f 05c0 b392 50bf e532 06c0
00000030: 5784 a896 84c3 11c0 a731 473a 6617 0cc0
00000040: 381f 2f07 991c f5bf c1f7 4606 65ec f5bf
00000050: e959 c2f6 eaf9 03c0 9f38 1834 33a2 f8bf
00000060: e04e f227 da78 ebbf 21ab 0f4a 2678 d3bf
00000070: 50d7 74f9 46ab f5bf 0b14 ff6e b32c f1bf

bias_h_3 f8 [4]
-4.420683987780446 -3.8703728059897484 -5.488662372093963 -3.04846444586486
00000000: 1cdf 85c8 c7ae 11c0 066e 8804 86f6 0ec0
00000010: a9b7 abe8 63f4 15c0 1311 d053 4163 08c0

weight_h_o f8 [4, 3]
1.5641007386545935 -1.9116531646592867 1.5625202112957388 6.515109756236655 -0.3069976973982973 -4.714776624269627 2.315871355472934 -2.022579561759962
1.3143579673269634 6.452931127019843 -0.18380629467913187 -4.621372271480797
00000000: 19bc 027f 8e06 f93f c91a f8a0 2196 febf
00000010: d6aa 6d31 1500 f93f 418c 93ee 780f 1a40
00000020: b078 91ab d9a5 d3bf babb 4467 eedb 12c0
00000030: dcfe ab8f e786 0240 5189 7a31 3e2e 00c0
00000040: 6380 4e38 9c07 f53f 0690 672d cdcf 1940
00000050: 4f10 39f4 f686 c7bf e39a 4203 497c 12c0

bias_h_o f8 [3]
5.615838135684044 0.5831981419859122 -4.311934118628246
00000000: 0092 b145 9e76 1640 d05b 5d26 8fa9 e23f
00000010: 420f 58a8 6b3f 11c0
