src/classify/model/model2.npz (npz, 3102 bytes, 8 tensors)

weight_h_1 f8 [8, 4]
0.7908325470898939 0.8632827919692602 0.03364283943551161 0.32732389842572096 0.5681062253011067 0.35926396581507347 0.37238880603988234 0.5966096255714703
-4.024677705296912 -2.564484826371608 -2.286258577115616 -3.484307315405382 0.03650910745446079 0.7306433121726738 0.6421847370393912 0.5280178540005239
1.1256688691519865 1.1584100756055953 0.745364984724603 0.2972235012226034 2.3865456083066174 2.6155201979849414 3.098977159529355 0.6828226056348919
0.010894919490997301 0.2630534604184286 0.3670970461593851 0.9714457296725053 0.8923584508019283 0.8104986334753328 0.007838572041846237 0.13942849856970174
00000000: 95a1 cb0e 804e e93f 33a4 d63b 03a0 eb3f
00000010: f07d 3d5e a239 a13f 3c03 bcef dff2 d43f
00000020: f64f 4a1b ed2d e23f eea5 f349 2efe d63f
00000030: 389e d5db 37d5 d73f 5add c911 6d17 e33f
00000040: 23c3 c41c 4519 10c0 98d5 e29e 1084 04c0
00000050: dc49 d7ef 414a 02c0 9209 8783 dcdf 0bc0
00000060: 60ce 0b5d 52b1 a23f fd53 5a15 6e61 e73f
00000070: ac62 7201 c78c e43f 015d d4b2 85e5 e03f
00000080: 1e21 325c bd02 f23f a353 e100 d988 f23f
00000090: 0339 1fab 07da e73f fba2 56b8 b505 d33f
000000a0: fcb6 5039 a517 0340 6efb 82da 95ec 0440
000000b0: 21d6 7989 b4ca 0840 d57b 05cb aed9 e53f
000000c0: 8047 4057 1350 863f aa31 662e ded5 d03f
000000d0: e29d ed9b 847e d73f 5508 d95a 1516 ef3f
000000e0: bb1c 504f 338e ec3f fa55 87d4 9aef e93f
000000f0: c05b 8954 ab0d 803f 445e be04 cbd8 c13f

bias_h_1 f8 [4]
-0.8683451036282366 -2.033657609473739 -0.7786266252406124 -2.6438196484009127
00000000: 4233 b7ab 7bc9 ebbf 289c df47 ee44 00c0
00000010: 4281 6662 82ea e8bf ad3b 73ea 8a26 05c0

weight_h_2 f8 [4, 4]
-1.7316197442083898 -1.4180375762896502 -2.1978735856517333 -2.931399678977749 -1.1688436551533512 -0.634282088922186 -2.276350723708975 -4.892457490703322
-2.612754725593658 -0.3514228929985133 -2.4782037566781208 -4.329302548484448 -0.5572905917886548 -0.5574659692483329 -1.2335069130436895 -3.06656662489461
00000000: 0aba a7e7 b6b4 fbbf 469c 6a2b 48b0 f6bf
00000010: 7dee 18bf 3e95 01c0 f3b6 c5ac 8173 07c0
00000020: f954 9067 95b3 f2bf d17f 8bf3 094c e4bf
00000030: a572 445e f735 02c0 6090 5e60 e091 13c0
00000040: 5a27 17f3 ebe6 04c0 f9a2 1f72 b67d d6bf
00000050: 120e be7d 5cd3 03c0 afeb f0af 3451 11c0
00000060: 6a39 4314 53d5 e1bf b9be 51df c2d6 e1bf
00000070: db99 aebe 71bc f3bf 6b6b 2715 5488 08c0

bias_h_2 f8 [4]
3.799676066663208 3.3547221249614645 1.2571684063773225 -8.446508092330358
00000000: fcb2 cd90 bc65 0e40 5504 af8d 78d6 0a40
00000010: d647 6f9e 5c1d f43f 9eea 6bb5 9ce4 20c0

weight_h_3 f8 [4, 4]
-34.49144704033764 -5.330522236611273 -8.78993376170624 -25.731883196544512 -35.864421132652225 -3.3472800294274405 -10.461092152248264 -26.938729269985373
-35.64750215464718 -3.873703481247994 -1.6491303452789023 -26.44150378474096 -6.751792508293398 -0.06117638785617015 0.03678916863624693 -5.069313551844862
00000000: abfb 92bc e73e 41c0 8062 d36b 7452 15c0
00000010: b211 b132 7294 21c0 8fa6 79b2 5cbb 39c0
00000020: 365b 075a a5ee 41c0 e68e 87c0 3ac7 0ac0
00000030: 75b2 4445 14ec 24c0 9862 ba8f 50f0 3ac0
00000040: 4b26 c159 e1d2 41c0 51e4 3240 58fd 0ec0
00000050: 7206 3d80 d662 fabf cc85 5c64 0671 3ac0
00000060: e7fd 31e5 d501 1bc0 1a63 42f2 8252 afbf
00000070: 0088 47a8 07d6 a23f 865f b921 fa46 14c0

bias_h_3 f8 [4]
-40.021208338348536 -6.026743538459282 -87.6239193784652 -29.998830820200357
00000000: 03ce 6ff4 b602 44c0 6c3f 7ca8 621b 18c0
00000010: 5176 8b4b eee7 55c0 55ff 6a60 b3ff 3dc0

weight_h_o f8 [4, 3]
9.567750210647475 -2.203986899983243 -6.755967796620047 3.2048726272963446 -3.4404802099479364 2.0397145719052796 7.458066942537943 4.001327830574068
-10.121089095698197 11.659059022519582 -1.680427667725744 -9.503909414127762
00000000: 580e d627 b022 2340 72ec 41e2 c3a1 01c0
00000010: c73f 0d6c 1c06 1bc0 ccaa 9042 94a3 0940
00000020: c217 027d 1a86 0bc0 0210 9cdf 5551 0040
00000030: 1451 2680 0fd5 1d40 9e8f 3315 5c01 1040
00000040: 19da d363 ff3d 24c0 eeb5 272f 7051 2740
00000050: 5ccf 421f 08e3 fabf 88a6 2b6a 0002 23c0

bias_h_o f8 [3]
13.734086262739297 -2.1736367238663696 -9.09304340077875
00000000: f8d0 9527 da77 2b40 0820 93a6 9b63 01c0
00000010: 1ee8 7662 a32f 22c0
