src/classify/model/model10.npz (npz, 3102 bytes, 8 tensors)

weight_h_1 f8 [8, 4]
0.6561603514452276 0.699257136786512 0.38448368944115796 0.5655091618871133 0.4136452149440585 0.1602613625348624 0.3495493227052431 1.3741764897975313
1.3829544430884464 1.6076505565543247 3.408449473166959 3.0309193087771265 0.504763490412568 0.5543625036036871 0.6419605519065912 0.15200278518619614
0.3447450971389868 0.6482619635577498 1.2874396561891495 0.5081867606751753 3.2844489895427276 0.23843495453033547 3.165499089650675 2.5643084074775753
0.03135651689934271 0.7689746903068971 0.5599042935367281 0.3381833143070685 0.4072233946938556 0.8086626608405076 0.3216039642677453 0.6708791432516144
00000000: a973 4cfe 43ff e43f efc3 bf80 5060 e63f
00000010: 42b1 ff79 619b d83f ba97 7cab a618 e23f
00000020: 4a39 95c7 2979 da3f 3227 73bf 7183 c43f
00000030: f8e8 561f 045f d63f b2cc a97c a0fc f53f
00000040: abc3 8ed6 9420 f63f 9bc0 3cca efb8 f93f
00000050: 6c90 4a28 8144 0b40 fa19 609f 523f 0840
00000060: 602d 71c3 0527 e03f 9968 e36e 56bd e13f
00000070: 7459 f8da f08a e43f b447 a3c7 d374 c33f
00000080: 4ac5 6abd 4d10 d63f b814 97df 8fbe e43f
00000090: 7d7e 2e53 5a99 f43f 9685 abe1 1043 e03f
000000a0: e7ba 1b31 8d46 0a40 402c f75d 0985 ce3f
000000b0: 148a cc2f f152 0940 cfca 5720 b483 0440
000000c0: 90c3 321d f60d a03f 393c 4acf 709b e83f
000000d0: db2a b468 bcea e13f a41c c0a0 cba4 d53f
000000e0: d213 98b6 f20f da3f 60cd 3984 90e0 e93f
000000f0: 90cf 32cb 2895 d43f a0b1 7a89 d777 e53f

bias_h_1 f8 [4]
1.0196368746350564 -3.2713265226178776 1.2775034730074415 -4.535828010233937
00000000: c9a6 65c1 6e50 f03f 1373 693d ad2b 0ac0
00000010: 7c7e 517b a770 f43f 2af1 1019 b024 12c0

weight_h_2 f8 [4, 4]
-0.48618030682517926 1.4875710845837031 1.5679150602793177 -3.6996618443471245 0.3722757700228984 0.3657499846430322 1.1112542102054628 -0.19154370114321906
-0.10544806954672288 1.4707448903626734 0.014624216175805815 -4.6705491649630115 -0.7450942981034702 0.8389013143898509 6.3349524209001995 -2.192763009405805
00000000: 3b7f 7101 941d dfbf 3232 6c56 17cd f73f
00000010: 7ce3 2c1a 2e16 f93f ecd6 1d4f e898 0dc0
00000020: 37dc 55c0 5dd3 d73f 127a a39f 7268 d73f
00000030: 11ff a57e b2c7 f13f 381c 1506 8184 c8bf
00000040: 7527 210a a5fe babf 5dde 4dcb 2b88 f73f
00000050: 5344 a311 4df3 8d3f 4681 b770 a4ae 12c0
00000060: 9b4b 59ff cfd7 e7bf c006 bc91 47d8 ea3f
00000070: f6ed 75c4 fd56 1940 3736 2a55 c78a 01c0

bias_h_2 f8 [4]
-2.185187319778095 0.08203556470126769 -4.847425028967291 3.2524592126629894
00000000: 81a5 507d 437b 01c0 d636 8063 4800 b53f
00000010: cde7 0463 c363 13c0 0cb1 ef55 0905 0a40

weight_h_3 f8 [4, 4]
0.47075230412822194 0.395688417228619 0.593588081431984 0.6220003865023903 -2.6873714825423916 1.0644695052775002 1.0349082943370829 -2.020123222852131
-3.759351836851174 -5.746371655604196 -7.233717276537297 -3.5971287226860755 6.447711204870137 2.9960676496531917 2.4004049301750046 5.377494369693029
00000000: bbd4 af45 ce20 de3f 78c9 d982 f552 d93f
00000010: d676 a16e acfe e23f 6b11 c45a 6de7 e33f
00000020: e6c7 ad9e bc7f 05c0 3e19 0c2d 1108 f13f
00000030: 3297 e8ff fb8e f03f f751 405d 3629 00c0
00000040: 7077 4b0e 2713 0ec0 f3ec edd9 48fc 16c0
00000050: 96f3 ec94 53ef 1cc0 f782 7b6c ebc6 0cc0
00000060: 46e1 5bce 74ca 1940 90e9 de50 f2f7 0740
00000070: 0a12 0280 0734 0340 d405 51e2 8d82 1540

bias_h_3 f8 [4]
-1.112113071487143 1.2570870605686548 2.2398224155571054 -1.0582502833398177
00000000: bbdc 7713 37cb f1bf d2df 5552 071d f43f
00000010: ec52 bd03 28eb 0140 05d6 5ed9 97ee f0bf

weight_h_o f8 [4, 3]
-3.984646102243068 -3.60665761230822 8.945564447904365 3.9594586361573936 -5.5277943375190794 3.2225767371059697 6.187911581399738 -6.698610524768768
1.5042220463449658 -2.06662166488207 -3.4108488591934436 7.540662559654317
00000000: 8e24 ba22 8ee0 0fc0 b3dd 654e 6fda 0cc0
00000010: e304 f805 21e4 2140 4149 41a6 f8ac 0f40
00000020: 3ca2 6a1e 761c 16c0 a5c3 f54f d6c7 0940
00000030: 279b c2e4 6bc0 1840 d117 b28e 60cb 1ac0
00000040: c994 ef22 4b11 f83f 0efd 7ef0 7088 00c0
00000050: 91ad 6e20 6b49 0bc0 3a8c 2f72 a329 1e40

bias_h_o f8 [3]
-1.6530506487990253 8.673684317394487 -7.510301400423629
00000000: 0793 b33c e572 fabf 2713 9e26 ed58 2140
00000010: a0b0 4773 8c0a 1ec0
